Model: "functional_2"
┏━━━━━━━━━━━━━━━━━━━━━┳━━━━━━━━━━━━━━━━━━━┳━━━━━━━━━━━━┳━━━━━━━━━━━━━━━━━━━┓
┃ Layer (type)        ┃ Output Shape      ┃    Param # ┃ Connected to      ┃
┡━━━━━━━━━━━━━━━━━━━━━╇━━━━━━━━━━━━━━━━━━━╇━━━━━━━━━━━━╇━━━━━━━━━━━━━━━━━━━┩
│ input_layer_3       │ (None, 1920)      │          0 │ -                 │
│ (InputLayer)        │                   │            │                   │
├─────────────────────┼───────────────────┼────────────┼───────────────────┤
│ dense_3 (Dense)     │ (None, 256)       │    491,776 │ input_layer_3[0]… │
├─────────────────────┼───────────────────┼────────────┼───────────────────┤
│ input_layer_4       │ (None, 34)        │          0 │ -                 │
│ (InputLayer)        │                   │            │                   │
├─────────────────────┼───────────────────┼────────────┼───────────────────┤
│ reshape_1 (Reshape) │ (None, 1, 256)    │          0 │ dense_3[0][0]     │
├─────────────────────┼───────────────────┼────────────┼───────────────────┤
│ embedding_1         │ (None, 34, 256)   │  2,172,160 │ input_layer_4[0]… │
│ (Embedding)         │                   │            │                   │
├─────────────────────┼───────────────────┼────────────┼───────────────────┤
│ concatenate_1       │ (None, 35, 256)   │          0 │ reshape_1[0][0],  │
│ (Concatenate)       │                   │            │ embedding_1[0][0] │
├─────────────────────┼───────────────────┼────────────┼───────────────────┤
│ lstm_1 (LSTM)       │ (None, 256)       │    525,312 │ concatenate_1[0]… │
├─────────────────────┼───────────────────┼────────────┼───────────────────┤
│ dropout_2 (Dropout) │ (None, 256)       │          0 │ lstm_1[0][0]      │
├─────────────────────┼───────────────────┼────────────┼───────────────────┤
│ add_1 (Add)         │ (None, 256)       │          0 │ dropout_2[0][0],  │
│                     │                   │            │ dense_3[0][0]     │
├─────────────────────┼───────────────────┼────────────┼───────────────────┤
│ dense_4 (Dense)     │ (None, 128)       │     32,896 │ add_1[0][0]       │
├─────────────────────┼───────────────────┼────────────┼───────────────────┤
│ dropout_3 (Dropout) │ (None, 128)       │          0 │ dense_4[0][0]     │
├─────────────────────┼───────────────────┼────────────┼───────────────────┤
│ dense_5 (Dense)     │ (None, 8485)      │  1,094,565 │ dropout_3[0][0]   │
└─────────────────────┴───────────────────┴────────────┴───────────────────┘
 Total params: 12,950,129 (49.40 MB)
 Trainable params: 4,316,709 (16.47 MB)
 Non-trainable params: 0 (0.00 B)
 Optimizer params: 8,633,420 (32.93 MB)

